Teleoperation_Local_Node/teleop_ur5e/src/model/keypoint_classifier/keypoint_classifier.tflite (tflite, 7468 bytes, 6 tensors)

sequential/dense/BiasAdd/ReadVariableOp f4 [20]
-0.65710545 -1.6068833 -1.4417887 -1.1073108 -0.16483346 -1.0958306 -0.15811735 -0.79086316
-0.60173273 -1.2235425 0.1231537 -0.6095029 0.50945544 -1.1551633 0.44214538 0.9216132
0.9264407 -0.82461476 -0.68656844 -1.0924233
00000000: 1038 28bf 5aae cdbf 888c b8bf 5cbc 8dbf
00000010: 1aca 28be 2d44 8cbf 84e9 21be 0276 4abf
00000020: 280b 1abf 0a9d 9cbf 0238 fc3d 6208 1cbf
00000030: ac6b 023f 64dc 93bf e160 e23e d8ee 6b3f
00000040: 382b 6d3f f419 53bf f3c2 2fbf 87d4 8bbf

sequential/dense_2/BiasAdd/ReadVariableOp f4 [25]
-0.9037301 -0.36769602 1.632485 -0.4546142 -1.2124594 -0.034966387 -0.30388775 -0.17529447
-0.6192636 0.44257408 0.60520285 -0.15873235 -0.9427967 -0.38334298 0.32108784 0.3716336
-0.1431314 0.7771112 0.23102067 0.657012 0.14444259 -0.606009 -0.47522137 -0.66269386
0.02012525
00000000: db5a 67bf a742 bcbe 45f5 d03f 31c3 e8be
00000010: df31 9bbf ea38 0fbd 2d97 9bbe 6580 33be
00000020: 0f88 1ebf 1299 e23e 93ee 1a3f bc8a 22be
00000030: 205b 71bf 8845 c4be a065 a43e c246 be3e
00000040: 0a91 12be c2f0 463f af90 6c3e f031 283f
00000050: c2e8 133e 6823 1bbf 3750 f3be 4ea6 29bf
00000060: b5dd a43c

sequential/dense_1/BiasAdd/ReadVariableOp f4 [10]
1.3299987 -0.9134137 0.65960115 0.4714082 1.4223944 0.5533731 1.0808274 -0.7426752
0.8420161 0.37764785
00000000: 663d aa3f 7bd5 69bf 9fdb 283f 6a5c f13e
00000010: 0511 b63f dca9 0d3f 8d58 8a3f f61f 3ebf
00000020: 5e8e 573f 0f5b c13e

sequential/dense/MatMul f4 [20, 42]
-0.15404315 0.022734523 -0.14573981 0.340607 -0.21356094 -0.05739703 -0.5902871 -0.2536746
-1.7164336 -0.18256912 -0.32024595 0.5257299 0.10036613 0.13811624 0.24831016 -0.09737556
0.28551626 -0.17448848 -0.36973992 0.4465041 0.0878365 -0.031067727 0.37169644 -0.045590498
0.4466113 0.01687529 -0.36209825 0.42229444 0.12896593 -0.064595126 0.48836902 -0.09947689
0.6690165 0.014014092 -0.2699787 0.36105844 0.1188107 -0.059874546 0.4247388 -0.028650139
0.5605928 0.023435865 0.12908038 0.11698216 -0.5138241 -0.8909814 -0.17599776 -0.71395373
-0.10800967 -0.8421105 -0.09308823 -0.6831509 -0.2541412 -0.43884507 -0.0063369796 -0.38273865
0.04422796 -0.0074805375 0.064897686 0.19501834 -0.25142705 -0.36143774 0.0047861463 -0.06950023
0.033239406 0.42207843 0.048077907 0.86876744 -0.25595567 -0.24943446 -0.0049948907 -0.2586953
0.025934495 0.16468005 0.034341797 0.47786412 -0.28907692 -0.23600008 -0.08905589 -0.22172661
-0.026046474 -0.07078601 0.0030978504 0.03670264 -0.3083964 0.29178005 -0.7216779 -0.19915089
-0.34773397 -0.13649675 -0.23501839 -0.06133283 -0.20514916 -0.058930185 -0.036763057 0.0007621872
-0.06288333 0.010352275 -0.035680883 -0.013700707 -0.0110800145 -0.082993105 -0.0518669 0.29411688
-0.07583573 -0.17165779 -0.051211387 -0.4184071 -0.02556556 -0.4581126 -0.064051755 1.6768878
-0.067309365 0.0005056174 -0.03801661 -0.3143339 -0.028345045 -0.32427114 -0.10023888 1.4095801
-0.08428843 0.43967187 -0.10092844 0.14718087 -0.08588751 0.10531655 -0.2837716 -0.041997284
-1.19967 -0.1327341 -0.63703275 -0.12145175 -0.333106 -0.07689541 -0.16167994 -0.13994317
0.19988362 -0.1260505 0.10238396 -0.23794058 0.0008393076 -0.34926215 -0.111583576 -0.2953155
0.21482904 0.08157913 0.058516525 -0.33919337 -0.090189174 0.17046052 -0.25485352 0.5102668
0.19438384 0.48653167 0.029324172 0.15189156 -0.048817 1.108519 -0.16154724 1.8291454
0.2394641 0.15289871 0.06612682 0.2425776 0.008571412 1.1032894 -0.046299994 1.7375036
0.25545436 -0.26651978 -1.2969893 -0.08407752 -0.63814396 -0.08900085 -0.3025811 -0.027055131
-0.14565042 -0.0100017395 0.13696286 -0.16053446 0.03286818 -0.14083277 0.030827597 -0.003758119
0.01677028 0.14227569 0.12924416 -0.24742697 0.025215168 -0.34479237 0.028381791 -0.18962382
0.010957365 -0.05082795 0.09921467 -0.7519753 0.014895547 -0.68841004 0.03269837 -0.53172493
0.027572919 -0.21520813 0.11476266 -0.1473679 0.02570297 -2.3131208 0.07103755 -3.7861314
0.07682071 -3.761936 0.18419468 0.20330948 0.80028164 0.49566126 0.2621719 0.15634406
0.35992968 0.10245363 0.37575424 0.24814667 -0.2618166 0.1002945 -0.1085844 0.30741295
-0.03021182 -0.016797356 0.0044413125 -0.5783581 -0.05433311 0.24268955 -0.13083823 0.26488125
-0.16245843 -0.23402902 -0.062343504 -0.71732783 0.10342441 0.33560532 -0.2521612 0.22937216
-0.42107958 -0.28465027 -0.44853923 -0.7644109 0.3445863 0.51356393 -0.25003967 0.24548423
-0.62812483 -0.15878123 -0.7862383 -0.5564482 0.29192692 -0.0030742884 -1.8417062 0.7129896
00000000: 7dbd 1dbe c03d ba3c d13c 15be 0a64 ae3e
00000010: b8af 5abe 2619 6bbd 0e1d 17bf a3e1 81be
00000020: 19b4 dbbf 66f3 3abe 47f7 a3be 3c96 063f
00000030: c28c cd3d 586e 0d3e 0545 7e3e d66c c7bd
00000040: 302f 923e 1cad 32be 8d4e bdbe 2f9c e43e
00000050: 9fe3 b33d bf81 febc ff4e be3e 1abd 3abd
00000060: 3caa e43e 0c3e 8a3c f164 b9be fa36 d83e
00000070: a50f 043e 734a 84bd 810b fa3e 8aba cbbd
00000080: aa44 2b3f 5d9b 653c a63a 8abe a7dc b83e
00000090: 0653 f33d 033f 75bd 5d77 d93e b2b3 eabc
000000a0: 0283 0f3f 92fc bf3c a62d 043e 5894 ef3d
000000b0: fa89 03bf 5b17 64bf c238 34be acc5 36bf
000000c0: 2d34 ddbd 8e94 57bf 0ba5 bebd fae2 2ebf
000000d0: cc1e 82be 4db0 e0be 70a6 cfbb 52f6 c3be
000000e0: 6128 353d 4c1f f5bb 14e9 843d e3b2 473e
000000f0: 0cbb 80be 5e0e b9be 1bd5 9c3b 2356 8ebd
00000100: 0b26 083d aa1a d83e 57ed 443d 8b67 5e3f
00000110: 9f0c 83be bf6b 7fbe 2eac a3bb b673 84be
00000120: 9474 d43c e3a1 283e fca9 0c3d 9baa f43e
00000130: e401 94be 01aa 71be ef62 b6bd 4d0c 63be
00000140: 6a5f d5bc 41f8 90bd 4e05 4b3b 8255 163d
00000150: 22e6 9dbe 3264 953e e2bf 38bf 36ee 4bbe
00000160: 300a b2be cec5 0bbe a9a8 70be 2238 7bbd
00000170: 9f12 52be c760 71bd dc94 16bd 84cd 473a
00000180: fac8 80bd 979c 293c 1e26 12bd ee78 60bc
00000190: f388 35bc 4af8 a9bd 6372 54bd 7d96 963e
000001a0: c34f 9bbd 0fc7 2fbe 08c3 51bd 7539 d6be
000001b0: de6e d1bc bc8d eabe 912d 83bd 42a4 d63f
000001c0: 7ed9 89bd 698b 043a 4eb7 1bbd 5ff0 a0be
000001d0: de33 e8bc de06 a6be 0b4a cdbd 1f6d b43f
000001e0: 6a9f acbd ac1c e13e 92b3 cebd 95b6 163e
000001f0: cae5 afbd 34b0 d73d 834a 91be 5805 2cbd
00000200: c98e 99bf 73eb 07be 9414 23bf b2bb f8bd
00000210: df8c aabe 577b 9dbd 6d8f 25be 434d 0fbe
00000220: 4bae 4c3e 6213 01be aeae d13d b2a6 73be
00000230: fb04 5c3a 7dd2 b2be ee85 e4bd 9833 97be
00000240: 25fc 5b3e f512 a73d 06af 6f3d c1aa adbe
00000250: 1ab5 b8bd 348d 2e3e 297c 82be d8a0 023f
00000260: 8f0c 473e ae1a f93e 3f39 f03c 7689 1b3e
00000270: 56f4 47bd f3e3 8d3f a46c 25be 7021 ea3f
00000280: 1436 753e 7b91 1c3e 806d 873d 4366 783e
00000290: 1c6f 0c3c 9638 8d3f 10a5 3dbd 8566 de3f
000002a0: eaca 823e 4875 88be bf03 a6bf d630 acbd
000002b0: 675d 23bf 1446 b6bd e9eb 9abe b9a2 ddbc
000002c0: 6225 15be 56de 23bc fe3f 0c3e 2563 24be
000002d0: c9a0 063d 7736 10be 288a fc3c c64a 76bb
000002e0: d461 893c b8b0 113e 9558 043e 7f5d 7dbe
000002f0: 0a90 ce3c a088 b0be ee80 e83c bf2c 42be
00000300: 8586 333c f830 50bd 1031 cb3d 7481 40bf
00000310: 740c 743c a43b 30bf baee 053d 201f 08bf
00000320: 9ae0 e13c 855f 5cbe af08 eb3d 9ce7 16be
00000330: 098f d23c 2c0a 14c0 237c 913d fa4f 72c0
00000340: 2d54 9d3d 8fc3 70c0 889d 3c3e 5c30 503e
00000350: 42df 4c3f 50c7 fd3e 653b 863e a818 203e
00000360: b448 b83e 35d3 d13d dc62 c03e 291a 7e3e
00000370: d30c 86be 3467 cd3d 7f61 debd 3b65 9d3e
00000380: c77e f7bc 9c9a 89bc 6e88 913b 470f 14bf
00000390: 658c 5ebd 9c83 783e 75fa 05be 849e 873e
000003a0: 815b 26be 4ea5 6fbe e75b 7fbd cca2 37bf
000003b0: 2dd0 d33d 76d4 ab3e 461b 81be 89e0 6a3e
000003c0: be97 d7be aebd 91be efa6 e5be 6fb0 43bf
000003d0: 9e6d b03e ed78 033f 3305 80be 3860 7b3e
000003e0: cacc 20bf 8c97 22be ea46 49bf 6473 0ebf
000003f0: 7277 953e 007a 49bb 07bd ebbf 7d86 363f

sequential/dense_1/MatMul f4 [10, 20]
0.10226579 0.551152 -0.13504751 -0.18876968 0.3786769 0.8328508 -0.13095254 -0.13493821
0.52258676 0.34732336 0.19475839 0.55269235 -0.13564536 -0.636316 0.61420345 0.6299549
0.4178216 -0.051581208 0.65301955 -0.58184373 1.3397332 0.07920231 -0.6302332 0.47048494
0.32867873 0.09711888 0.32352474 0.3982062 0.52385724 -0.08159204 2.0879533 1.1119995
0.7643476 0.15975717 0.7231461 0.88857853 0.352373 1.300125 0.5461926 1.3892541
-0.01676381 1.4324803 0.46893248 0.3939995 -1.7256024 0.65330094 -0.49878487 0.25293756
0.52961004 0.5249176 -2.6963556 -0.010880094 0.26996455 0.37187612 -1.1319361 0.045943715
0.16246904 -0.62449425 -2.199667 -0.15950719 -0.2770245 0.5020479 0.12652901 -2.2187355
0.050600998 0.97694194 0.0123150265 -2.3466146 1.2105533 0.7589643 -1.2126328 -0.08348569
-0.023110325 0.1923953 0.061078086 0.059712235 0.06911107 0.40780503 0.27043912 -0.011234563
0.11579798 1.4970853 2.1551094 0.037863877 0.16413891 0.7120717 0.11703304 0.051443536
-0.27746966 0.7307036 -0.07558494 0.0736788 -0.023067228 0.5570342 0.63524616 -1.8112239
-2.695522 -0.032491833 0.19194362 -0.5377164 1.0343931 -0.20820172 -0.3078874 1.1500794
-0.002370963 0.19071247 0.15458456 0.9143184 0.08233098 0.30500698 0.058450542 0.65480685
1.1414081 1.0079024 -0.09707724 0.572979 0.9166711 0.74420017 0.0051918877 1.0676388
-0.24284594 1.9697933 -0.15949991 -0.014862919 0.2702842 -0.19368288 0.12556036 0.0051065693
-0.44620264 -0.022552278 -0.18953967 0.5169877 0.21995081 0.16378671 0.21584094 0.61096877
0.6240652 -0.16282107 0.3472373 0.9134333 0.5013062 0.587766 -0.20610869 -0.064811684
1.4450037 0.13823423 1.426768 -0.04956566 0.77856344 0.14779541 1.3604336 0.94962317
0.01051579 0.76788336 0.8523092 -0.04081579 0.58996993 0.29622233 1.48348 -0.056594234
-0.9365088 -0.026502261 1.0339751 0.6011475 -0.10887171 0.0061536403 0.46456903 0.54591286
-0.7879478 0.015303851 -0.6165642 0.20131509 1.1200095 0.94928247 0.31958255 0.06174452
-0.046064667 -0.59224766 -0.7316188 0.0013571858 0.84120524 0.5198005 2.3947904 0.08751442
-0.24296944 0.06601486 0.11167906 0.06480871 0.2258547 0.021511532 0.09270816 0.101142585
0.08362824 0.02988917 0.10995768 0.0814877 -0.20486984 -1.4180051 0.104674324 0.09783876
00000000: ba70 d13d 4c18 0d3f e549 0abe d74c 41be
00000010: f0e1 c13e b635 553f 6c18 06be 3e2d 0abe
00000020: 3fc8 053f 5ed4 b13e be6e 473e 3f7d 0d3f
00000030: 9ee6 0abe 9be5 22bf 703c 1d3f b944 213f
00000040: b6ec d53e d146 53bd 4a2c 273f b6f3 14bf
00000050: 617c ab3f d234 a23d f756 21bf 67e3 f03e
00000060: 9448 a83e 43e6 c63d 09a5 a53e afe1 cb3e
00000070: 821b 063f ba19 a7bd 07a1 0540 0056 8e3f
00000080: 49ac 433f 6297 233e 1a20 393f e279 633f
00000090: 3c6a b43e 7f6a a63f 47d3 0b3f 14d3 b13f
000000a0: 4254 89bc 845b b73f eb17 f03e 4dba c93e
000000b0: 8ae0 dcbf bb3e 273f bb60 ffbe 0881 813e
000000c0: 8694 073f 0061 063f 1791 2cc0 6c42 32bc
000000d0: cb38 8a3e 8c66 be3e 48e3 90bf 7a2f 3c3d
000000e0: 495e 263e dbde 1fbf 58c7 0cc0 da55 23be
000000f0: 28d6 8dbe 3686 003f d290 013e c3ff 0dc0
00000100: fe42 4f3d de18 7a3f f7c4 493c ef2e 16c0
00000110: 69f3 9a3f 7c4b 423f 8d37 9bbf 8cfa aabd
00000120: dd51 bdbc 4603 453e 042d 7a3d d194 743d
00000130: 1b8a 8d3d d2cb d03e ff76 8a3e 2c11 38bc
00000140: 7e27 ed3d 7ea0 bf3f 50ed 0940 2717 1b3d
00000150: 0814 283e 554a 363f 05af ef3d 75b6 523d
00000160: 8110 8ebe 640f 3b3f 47cc 9abd e9e4 963d
00000170: 7cf7 bcbc cb99 0e3f 7e9f 223f 2fd6 e7bf
00000180: 6f83 2cc0 2816 05bd de8c 443e c8a7 09bf
00000190: fe66 843f d532 55be 6ba3 9dbe cd35 933f
000001a0: 2962 1bbb 214a 433e 6a4b 1e3e c510 6a3f
000001b0: 259d a83d e029 9c3e d669 6f3d 6ca1 273f
000001c0: a919 923f f202 813f 6fd0 c6bd c0ae 123f
000001d0: f5aa 6a3f e783 3e3f b620 aa3b 63a8 883f
000001e0: 9bac 78be 3022 fc3f f253 23be 9a83 73bc
000001f0: b162 8a3e ce54 46be e592 003e 0255 a73b
00000200: ac74 e4be 8ebf b8bc b016 42be 4e59 043f
00000210: c93a 613e b4b7 273e 6805 5d3e 7368 1c3f
00000220: bdc2 1f3f 91ba 26be 16c9 b13e c4d6 693f
00000230: 9a55 003f d577 163f 280e 53be fdbb 84bd
00000240: e2f5 b83f 468d 0d3e 55a0 b63f 5d05 4bbd
00000250: ef4f 473f ae57 173e b022 ae3f 811a 733f
00000260: 6c4a 2c3c 0194 443f f030 5a3f 752e 27bd
00000270: 4508 173f 74aa 973e ace2 bd3f 5bcf 67bd
00000280: 0abf 6fbf 451b d9bc 4c59 843f cde4 193f
00000290: 22f8 debd 7aa4 c93b fedb ed3e f2c0 0b3f
000002a0: f2b6 49bf 01bd 7a3c 27d7 1dbf 8b25 4e3e
000002b0: 795c 8f3f 2d04 733f 53a0 a33e d2e7 7c3d
000002c0: 4eae 3cbd 8b9d 17bf 5f4b 3bbf 99e3 b13a
000002d0: 3a59 573f a511 053f 3f44 1940 c33a b33d
000002e0: fbcc 78be cd32 873d feb7 e43d 6eba 843d
000002f0: 7446 673e f438 b03c c7dd bd3d d823 cf3d
00000300: 4845 ab3d 22da f43c 7e31 e13d 06e3 a63d
00000310: 66c9 51be 3181 b5bf 7e5f d63d b05f c83d

sequential/dense_2/MatMul f4 [25, 10]
0.19116834 0.14046702 -0.11992984 -0.31890532 -0.031758554 0.2603634 -0.4493572 0.36868513
-0.083166756 -0.1127941 -0.33908084 0.06667289 -0.68799704 -1.0949652 0.27394733 -0.0208538
0.6860678 0.3188762 -0.04401332 0.02088004 0.049542926 -0.04750919 -1.0713663 -1.7873561
0.003433272 -0.18655513 0.44144037 0.23682743 0.603784 -1.1801399 -0.0888927 0.115748845
-0.320509 -0.22782862 -0.28620878 -1.4665109 -0.48661658 0.56168836 0.12266384 0.5834099
-1.0150545 0.3088103 -0.53832155 -0.10556626 -0.74559087 0.3639 -0.83296174 -0.39104006
-0.15717643 0.49556416 -0.78796256 0.6843854 -0.44917306 -0.38810647 -1.0636675 0.0815294
-0.8917787 -0.9798256 -0.07188097 0.6262573 -0.6216481 0.43495533 -0.4084173 -0.28127486
-1.0945765 0.24476433 -0.46886653 -0.8102005 -0.15070185 0.2148725 -0.6539647 0.11342327
-0.6370949 0.05466964 -1.5206257 0.47012803 -0.27795753 -1.6536603 -0.0734751 -0.5277262
-0.69714415 -0.041103806 -0.38602978 0.04098381 -1.3828794 0.45601302 0.11980139 -1.5927787
-0.057252992 -1.2782853 -0.27883753 -0.6189088 0.20796439 -0.63850796 0.40181002 0.060624253
-1.3287513 -0.061475407 0.3688808 0.3968847 -1.234972 -1.0559608 0.27920854 -0.33867964
0.5165745 0.14767303 -1.4080406 -1.2765441 0.4612078 0.1113302 -1.1930557 -0.8901872
0.38057318 -0.21077803 0.23317488 0.0815118 -0.82245046 -0.884698 0.5349994 0.153931
-1.5004917 -0.41844293 0.6360231 -0.31423753 0.5465214 -0.053431287 -0.036554154 -0.94072044
0.2951769 -0.26130223 0.039012987 -2.0105753 -0.43094686 0.19472265 0.48603776 -1.6179085
-0.31040156 0.40675429 -0.91059875 0.6666104 0.14568101 -0.8104597 0.18221898 0.05862057
-0.037072647 -0.7246141 -0.14197406 -0.8438072 -0.7261726 0.6056594 0.2967003 -1.852
0.51569766 0.29208285 -0.57423025 -0.5548214 0.32897645 -2.4005206 -0.88789064 -0.7258018
0.56125045 -1.2513753 -0.39611453 0.31923735 -0.3716982 -0.4640722 0.35735726 -0.01726828
-1.3900098 -1.834515 0.28062737 -1.8629773 -0.4186678 0.35720298 -0.1379878 -0.70886034
0.17100807 0.17213427 -1.5675907 -0.84653115 0.2702429 -1.2370728 0.1581826 0.5257515
-0.53302985 -0.598578 0.256466 -1.212797 -1.4082227 -0.12426393 0.2801385 -1.1670712
0.35965127 0.48999542 -0.7009273 -0.3512258 0.47698975 -1.7707652 -1.5423878 -1.4524313
0.2408364 -1.1061982 -0.44552577 0.59049267 -0.36422026 -0.44551158 0.5461759 -0.03849539
-1.4310796 -1.8884559 0.15755734 -1.6162653 -0.6311876 -0.074837685 0.7800986 -1.613577
-0.2073919 0.322736 -0.31774288 0.3700421 0.16281465 -1.1694258 0.07233917 0.22878897
0.13522123 -1.3672962 0.32051194 -1.2549459 0.2847373 -0.31782034 0.031820897 -1.5521967
0.0503115 -0.13483664 0.50604814 -1.4601685 -0.36809424 0.13042219 -0.24404828 0.3070357
0.018975308 -1.606332 0.29304922 -0.12275343 0.36474955 -1.0625887 -0.0065801865 -0.32653466
-0.13617034 -0.63438696
00000000: a2c1 433e 96d6 0f3e c79d f5bd 8f47 a3be
00000010: 4215 02bd 5a4e 853e 2612 e6be 4cc4 bc3e
00000020: 5553 aabd 9800 e7bd 019c adbe cc8b 883d
00000030: 9320 30bf d227 8cbf d342 8c3e 97d5 aabc
00000040: 24a2 2f3f be43 a33e 5047 34bd 9e0c ab3c
00000050: 86ed 4a3d ff98 42bd 8822 89bf 16c8 e4bf
00000060: bf00 613b 4f08 3fbe 7904 e23e e482 723e
00000070: 9791 1a3f d30e 97bf 600d b6bd bb0d ed3d
00000080: c119 a4be e84b 69be f589 92be a1b6 bbbf
00000090: cf25 f9be cfca 0f3f 2e37 fb3d 5a5a 153f
000000a0: 4eed 81bf 621c 9e3e 71cf 09bf 2033 d8bd
000000b0: 0bdf 3ebf 1a51 ba3e fb3c 55bf 6736 c8be
000000c0: dcf2 20be 96ba fd3e eab7 49bf e233 2f3f
000000d0: 03fa e5be e4b5 c6be 4226 88bf e3f8 a63d
000000e0: 9c4b 64bf dad5 7abf 5436 93bd 6652 203f
000000f0: 5424 1fbf 77b2 de3e 131c d1be 4203 90be
00000100: 151b 8cbf 80a3 7a3e 460f f0be 4d69 4fbf
00000110: 9651 1abe 8907 5c3e 3b6a 27bf 764a e83d
00000120: a718 23bf 46ed 5f3d dda3 c2bf 9fb4 f03e
00000130: 7350 8ebe 24ab d3bf 1d7a 96bd 1019 07bf
00000140: 0a78 32bf 775c 28bd b2a5 c5be a4de 273d
00000150: 3102 b1bf 8a7a e93e 6e5a f53d 2ce0 cbbf
00000160: 1d82 6abd da9e a3bf cbc3 8ebe cf70 1ebf
00000170: 9ef4 543e 4275 23bf 0bba cd3e 2351 783d
00000180: 8614 aabf a3cd 7bbd f2dd bc3e 7934 cb3e
00000190: 9013 9ebf b929 87bf 6cf4 8e3e 6b67 adbe
000001a0: 3a3e 043f 9937 173e ad3a b4bf cc65 a3bf
000001b0: 6e23 ec3e 1701 e43d 0db6 98bf 4fe3 63bf
000001c0: 7dda c23e 32d6 57be 65c5 6e3e a9ef a63d
000001d0: 1d8c 52bf 917b 62bf b8f5 083f 17a0 1d3e
000001e0: 1d10 c0bf 273e d6be 69d2 223f bee3 a0be
000001f0: d4e8 0b3f c4da 5abd cfb9 15bd 0ed3 70bf
00000200: 6d21 973e 68c9 85be 15cc 1f3d 44ad 00c0
00000210: 11a5 dcbe 6065 473e f1d9 f83e a017 cfbf
00000220: f4ec 9ebe 1942 d03e 001d 69bf fba6 2a3f
00000230: 672d 153e 497a 4fbf 9d97 3a3e 1f1c 703d
00000240: 7dd9 17bd 4f80 39bf a661 11be c003 58bf
00000250: 73e6 39bf 7f0c 1b3f 1ae9 973e 560e edbf
00000260: c304 043f e28b 953e c100 13bf c608 0ebf
00000270: 9a6f a83e 21a2 19c0 cd4c 63bf 26ce 39bf
00000280: 1cae 0f3f 112d a0bf 86cf cabe 1473 a33e
00000290: 3a4f bebe df9a edbe 88f7 b63e 3576 8dbc
000002a0: d7eb b1bf 63d1 eabf 64ae 8f3e 0a76 eebf
000002b0: a05b d6be 4fe3 b63e ad4c 0dbe df77 35bf
000002c0: bd1c 2f3e f743 303e d0a6 c8bf 44b6 58bf
000002d0: 475d 8a3e 6758 9ebf 9ffa 213e a697 063f
000002e0: a574 08bf 683c 19bf 834f 833e ef3c 9bbf
000002f0: a440 b4bf 167e febd 506e 8f3e 9762 95bf
00000300: 3624 b83e aee0 fa3e f96f 33bf ded3 b3be
00000310: 0038 f43e 6fa8 e2bf f76c c5bf 45e9 b9bf
00000320: d19d 763e e797 8dbf f41b e4be 872a 173f
00000330: 147b babe 181a e4be 2fd2 0b3f 58ad 1dbd
00000340: 9e2d b7bf ecb8 f1bf b656 213e c8e1 cebf
00000350: 8395 21bf 8044 99bd 8bb4 473f b189 cebf
00000360: 8b5e 54be a73d a53e 32af a2be 2876 bd3e
00000370: e2b8 263e bfaf 95bf 8f26 943d a847 6a3e
00000380: 6f77 0a3e 9003 afbf 241a a43e 11a2 a0bf
00000390: 16c9 913e 59b9 a2be a156 023d 62ae c6bf
000003a0: 6e13 4e3d 9e12 0abe 5f8c 013f cde6 babf
000003b0: d976 bcbe 658d 053e cbe7 79be c933 9d3e
000003c0: 1b72 9b3c 499c cdbf 8c0a 963e 2666 fbbd
000003d0: 74c0 ba3e e802 88bf 9b9e d7bb 8d2f a7be
000003e0: 3d70 0bbe 2f67 22bf
