02_haptic_ur5e/src/model/point_history_classifier/point_history_classifier.tflite (tflite, 6652 bytes, 6 tensors)

sequential/dense/BiasAdd/ReadVariableOp f4 [24]
00000000: 7aab 4dbd 71f5 3abe b2d2 36bd cef8 f6bd
00000010: a1e2 0e3d 78d2 1fbe 5050 78be 1c35 3bbe
00000020: 87f5 33be 123d 21be 7ff9 0bbe f44b 38bd
00000030: 086f 4cbd 4fba 16be da5c 29be 4243 45bd
00000040: 2605 68bd 37d2 46be dc40 3dbe a048 6b3d
00000050: cc72 eabd 9ea8 153e 3cf0 48be 63dc 66bd
-0.05021236 -0.18257691 -0.04463453 -0.120591745 0.0348841 -0.15607631 -0.24249387 -0.18281978
-0.1757413 -0.15745953 -0.13669394 -0.04499431 -0.049910575 -0.14719509 -0.16539326 -0.048159845
-0.056645535 -0.19416128 -0.18481773 0.057442307 -0.11447677 0.14615104 -0.19622892 -0.05636252

sequential/dense_2/BiasAdd/ReadVariableOp f4 [9]
00000000: c50d 493f 2b63 2f3f 14a3 16bf ba9c 54bd
00000010: f986 acbe 237f a3be e467 b1be b765 91be
00000020: 9b09 b7be
0.78536636 0.68510693 -0.5884259 -0.05190728 -0.33696726 -0.31932935 -0.34649575 -0.28397915
-0.35749516

sequential/dense_1/BiasAdd/ReadVariableOp f4 [10]
00000000: 46fa b23f 437b ebbc 4369 023e c4da 23bf
00000010: ecb4 a73f 8064 b43e bef9 043f d5ec c23e
00000020: b067 673e 72dd fd3e
1.3982627 -0.0287453 0.12735467 -0.64005685 1.3102088 0.35232925 0.51943576 0.38071314
0.22598147 0.49583012

sequential/dense/MatMul f4 [24, 32]
00000000: 58b1 513d c80f 2c3e 608b 853d a90b d2bf
00000010: 75d2 46bc 98e3 2dc0 8913 a03e 7ca5 fabf
00000020: f535 983e 5165 84bf 80f1 fc3e 7948 ecbf
00000030: d4dd d03e e7ba a6bf 1510 2c3e 0921 aebf
00000040: 4fe1 a03e f0b8 aabf 48ff 043f cbc4 08bf
00000050: 3c23 023f 3a7c 01bf d336 903e 9eaf 1fbe
00000060: fdd7 1a3f 7f42 91be bb96 6e3f 6b98 21bf
00000070: 77b4 303f 412e 62bf a2a1 733f 83d8 b7bf
00000080: 707a d13c 10d6 313e cfdb 3ec0 fc89 f43e
00000090: 903f 07c0 4ab4 2f3f 05a0 c2bf 4293 5c3f
000000a0: 6569 5fbf d12c e03e 15d7 6fbf 9c42 89bc
000000b0: 4216 54bf e787 33be c8bb 12bf 2b3b ddbe
000000c0: 4469 8cbe 4878 47bf eae6 6fbe df4c 4fbf
000000d0: 5685 ad3b e61f 8cbf 90f3 ed3e fdf7 3cbf
000000e0: 3ed9 093f 7956 42bf 8753 103f ee75 19bf
000000f0: 7630 a03f d2f8 34be 60ba de3f 2bf0 8ebd
00000100: 50dc 5ebe 8062 90bb f6df 843f da21 66be
00000110: bd3a df3f 85ab 113f f5fa b63f 6fb7 c83e
00000120: 711e 163f 8ef3 bd3e 07db 3c3f c30a d43e
00000130: f4ea 5f3e 358f e93e e2cd 54be 47cd 013f
00000140: 481a d7be 95b4 023f 63f2 e2be 06a0 083f
00000150: b1a6 43bf 33d3 ed3e a5ed 47bf 6023 a83e
00000160: 095b 78bf 83a6 5bbd bd7e 5bbf 9464 eebe
00000170: 791d febe 1f47 73be ab82 ebbe 2473 4cbf
00000180: c0d6 2cbc 484c 67bd 7d72 55be f8ba febe
00000190: 0c02 2dbc 15ea 4abf 5460 943d e27f 5bbf
000001a0: 6c30 74bd 5a20 52bf 1a31 343f ac30 f8be
000001b0: b37a 6d3e 375e c8be 3144 e33e 08de 9abe
000001c0: 47b2 933e bf24 89be 9fe6 cfbe a585 9ebe
000001d0: be4d 32be 0dd9 4bbe cc19 46bf 47f7 23be
000001e0: 0a90 6fbf 4c3a 5dbe e3a3 99bf c4a0 21bd
000001f0: 7814 aebf 1497 c9bd 4ae5 d7bf ea5b c1bd
00000200: e610 123e c024 913e 5b8e 363f 6e34 a83f
00000210: d9cd 2a3f 8a60 4b3f 87de 90bd 5caa 13bf
00000220: caa1 e5be 8483 bbbf 6483 39bf 3f42 cfbf
00000230: bc19 59bf c3d2 c4bf 738d 95bf bb84 6dbf
00000240: 3bb7 a6bf 2c68 62bf 0eab dfbe c9ee 8bbe
00000250: a714 b5be 3d38 753e 9b46 0bbe f7f1 e13e
00000260: 68a2 3d3e 8b98 3a3f 0353 1f3e 8c71 923f
00000270: 937b 77bd 4937 f13f b24b 29bf a3a1 1640
00000280: f892 3cbd d2b7 03be 81b7 9d3f 507c b43f
00000290: f6f4 e53f c19c 7a3f d091 dd3f f829 1b3f
000002a0: 01c3 c53f f3a5 663e 84aa b53f 96a4 67be
000002b0: 2c6c 803f 0615 d6be c5a2 eb3e d6d6 10bf
000002c0: 035d e93d d38b 24bf a417 a8be 73f5 0ebf
000002d0: e65a b3be 3e97 e6be 3277 1dbf d050 b6be
000002e0: 30f0 34bf aceb 80be 7f90 23bf 7407 7ebe
000002f0: 34af 9cbd 0087 87bd e8c0 8cbb ddb1 80bd
00000300: ac68 853e 0ec4 2a3e 174a 05c0 13f5 b3bf
00000310: 46c9 bcbf 1668 88bf cb6b 37bf e237 8bbf
00000320: fca2 98be 2b42 8cbf d403 2cbe 8ddd 7abf
00000330: c9bb 073f 755a 3dbf c3a1 2c3f 7877 29bf
00000340: b80a cd3f 48bd 40be 98a4 a73f 6182 80be
00000350: 49be 9b3f 9351 ce3d 86d4 5b3f b39d e33e
00000360: 65ca db3e e87a 023f 5740 38be 8157 033f
00000370: 78b5 dfbe 2145 0f3f a75d 3dbf e7f5 db3e
00000380: f227 a53e 06c3 dcbd 515c 41c0 b16c ce3e
00000390: a240 10c0 377b 783f 5b95 b3bf ce54 c13f
000003a0: e76b 71bf b13e 9d3f ddde 24bf df5e 9a3f
000003b0: 9a93 18be ad3f 563f 9ada c83e b462 193f
000003c0: f2df 193f 510b d83e c6f2 273f 9c48 633e
000003d0: f594 443f d464 403e a136 8c3f 8918 a63d
000003e0: da93 963f 1cf9 883e e43b 943f dedf 2b3e
000003f0: 4ab0 c23f 22cb a23c 771b bf3f 480e f4bc
0.05119452 0.16802895 0.06520724 -1.6409808 -0.012135138 -2.7170162 0.31264904 -1.9581752
0.29728666 -1.0343419 0.49403 -1.8459617 0.4079424 -1.3025788 0.1680301 -1.3603832
0.31421897 -1.3337688 0.5195203 -0.5342528 0.50835013 -0.5058018 0.28166828 -0.15594336
0.6048582 -0.28371045 0.93198746 -0.63123196 0.6902537 -0.8835183 0.9516851 -1.4362949
0.025571078 0.17366815 -2.982166 0.47761524 -2.1132545 0.68634474 -1.5205084 0.861622
-0.87270194 0.43784192 -0.93687564 -0.016755395 -0.8284646 -0.17532311 -0.5731778 -0.43209204
-0.2742406 -0.7791791 -0.2342793 -0.8097667 0.005295436 -1.0947235 0.46474886 -0.738159
0.5384711 -0.75913197 0.5637745 -0.5994557 1.2514789 -0.17673042 1.7400627 -0.06979402
-0.2176373 -0.0044062734 1.0380847 -0.22473851 1.74398 0.56902343 1.4295336 0.3920245
0.586402 0.3709988 0.7377171 0.4141446 0.21866971 0.4561707 -0.20781663 0.50703853
-0.42012239 0.51056796 -0.4432555 0.53369176 -0.76426226 0.46450195 -0.7809699 0.3283949
-0.9701391 -0.053625595 -0.8574026 -0.4656111 -0.4963186 -0.237576 -0.4599813 -0.7986319
-0.010549247 -0.05646923 -0.20844455 -0.4975202 -0.01055957 -0.7926343 0.07244936 -0.8574201
-0.05961649 -0.82080615 0.70387423 -0.48474634 0.23191337 -0.3913438 0.44387963 -0.3024752
0.28846952 -0.26785848 -0.40605637 -0.30961338 -0.17412469 -0.19907017 -0.7738311 -0.16012298
-0.9357916 -0.2160427 -1.2003139 -0.03945996 -1.3599997 -0.09843269 -1.6866848 -0.09441359
0.14264259 0.2834835 0.7131097 1.3141 0.6672035 0.7944418 -0.07073694 -0.5768182
-0.44849998 -1.464951 -0.7246611 -1.6192092 -0.8480489 -1.5376819 -1.1683792 -0.92780656
-1.3024668 -0.88440204 -0.43685192 -0.27330616 -0.3536732 0.23947234 -0.13601153 0.44129917
0.18518984 0.7288901 0.1555901 1.1440902 -0.060420584 1.8844997 -0.66131127 2.3536155
-0.046038598 -0.1286309 1.2321626 1.4100437 1.7965381 0.9789544 1.7310123 0.60610914
1.5450135 0.22524242 1.4192662 -0.22621378 1.0033011 -0.41812915 0.4602262 -0.56577814
0.11394694 -0.64275855 -0.32830536 -0.55843276 -0.35030288 -0.45037264 -0.6151 -0.3560853
-0.70679 -0.25179803 -0.6389236 -0.2480753 -0.07650605 -0.06617546 -0.004295457 -0.06283925
0.2605642 0.16676351 -2.082647 -1.4059166 -1.4748924 -1.0656765 -0.71648854 -1.0876429
-0.29811847 -1.0957693 -0.16798335 -0.9799431 0.5302091 -0.7396615 0.6743433 -0.6619792
1.6018896 -0.18822205 1.3097105 -0.2509947 1.2167445 0.10074153 0.8587116 0.44456252
0.42927852 0.5096879 -0.17993294 0.51305395 -0.43693137 0.5596486 -0.7397103 0.42961046
0.32257038 -0.10779385 -3.0212595 0.403173 -2.2539449 0.9706301 -1.4029955 1.5104005
-0.9430527 1.2284757 -0.6440256 1.2060202 -0.14900056 0.8369091 0.3922928 0.59916234
0.6010734 0.42196134 0.6560482 0.22195667 0.7678979 0.18788463 1.0954171 0.081101485
1.1763871 0.26752555 1.1580777 0.16784617 1.5210049 0.019872252 1.4930257 -0.029791966

sequential/dense_1/MatMul f4 [10, 24]
00000000: 9ea0 09bd 39f8 5abf d45f 3cbf 5cd4 15bf
00000010: 31eb 043e 792c 343f 5335 87bf 40e6 df3e
00000020: c1a1 46bf 4138 8c3e 05eb a23e 14b6 14bf
00000030: 66e2 c83d 58b6 66bf 4bda d6be 7553 953e
00000040: 437c 29be 8716 75bf 7463 173f 1cf2 1a3e
00000050: e383 77bf beb3 053e aabf 5dbf 199d c9be
00000060: 37f0 233f 5f1a 673f 1795 d03f 8503 2440
00000070: 174d af3e 00dd 4740 43b5 6d3f 671d a63f
00000080: d397 c63f a438 1340 cdc3 3540 1567 863f
00000090: 652d 933f 4a94 a03f 8036 543f 1dd5 eb3e
000000a0: 27ee de3e 24ba 5b3f eb5d 4340 8aab a13e
000000b0: 4f6e 883f c503 3f3e 0bac 6f3f b414 193f
000000c0: fa55 64bf 96b3 b0be e907 4b3f f73e a6be
000000d0: e540 88bf d591 b2be e60e 7c3e 7e70 4f3f
000000e0: 92b5 fcbd a3d3 213f aa4c 53bf 7676 773f
000000f0: 03c4 403f 79d1 db3e 0fc3 97bf c1c9 433f
00000100: 3ff2 483f 01a6 0f3f bd4d 2fbf d06c 85bf
00000110: 36a0 203e d2a1 073e 5865 c1bd 8b43 40bf
00000120: 6726 a4bf 22ed 5dbe 9c20 7c3e 5f52 cc3d
00000130: 73db 313f b60b 94bd 0edc 47be 4e68 08bd
00000140: ad5b ecbe b3bf 083e 2efd 083d fb1d 85be
00000150: 8ca3 2bbf 7b90 8abe 2a3b eebc 9313 743f
00000160: 9580 343f a886 2e3f d3c7 1f3f e038 633f
00000170: 3c8a 72be 31b1 7f3f 5763 3fbd 05f7 6bbe
00000180: 315d dabc d1c8 b4be 34e0 7d3e a72d b8bf
00000190: a046 6a3e 859d e6bf c80f e6bd 1f79 52bf
000001a0: e5a5 6d3e ebd0 f0bf 2abc debf c282 52c0
000001b0: 620e 3ebd 072e 3bbf 64d3 6abd dfa3 aa3e
000001c0: 74b1 033f deed ffbd e949 a7bf a9db b63e
000001d0: 02c1 7cbf 8df9 323f 14b2 f63e 5adf 6cbf
000001e0: 9aa9 d23e 8bd3 33be 4185 fcbe 19f8 c3bc
000001f0: 5045 773f 68d3 643e a65e efbe b08a 05bd
00000200: ce63 bdbe 730f 69be a0ee aebe 562b a73e
00000210: 7069 5e3e 65a7 93bf 8565 4a3e 1663 293f
00000220: 1d8d 283f 8b86 0dbf 079d 263e fd6e 853f
00000230: 5699 21bf 3f60 553f 4e89 17bf 3a37 b93e
00000240: d683 97bd 353d afbd 88d0 ac3e c694 2c3e
00000250: 6c0a 2ebe b42c ba3e 9eef f7be 67c9 8f3f
00000260: 56d5 5f3e eaf2 f33e 7c0a 183e 2983 29be
00000270: 570a 8b3f 515a cf3c f140 bc3e 37d9 f83d
00000280: fe12 7a3e f31c 2cbe 1b15 01bf fe0d a3be
00000290: 6d89 5b3e cdf6 a53d c148 e23d b215 813e
000002a0: 6135 b23e f833 673f 5942 4d3f f24a 393c
000002b0: e2a5 933e a04a 1cbf a693 4a3f 392a e6be
000002c0: a4fd 973e 500c 73bf f0c5 ebbe 4d87 633f
000002d0: 6068 cfbe 66be 453f 0249 633f aae9 143e
000002e0: 3e8e 1cbc 110e 6b3f e36f 8bbf e3ad d53e
000002f0: 46cc 6c3f c3e4 043e 859f 413f ae3f 153f
00000300: df1a 4c3f 79ce 853f 7e0b 313f 1a97 a93e
00000310: e809 373e 10e8 41bd 054e 853f 6d9d 443f
00000320: 26cd 823f 8e44 ec3e 6ceb 44be 66c8 253f
00000330: 0c18 093f 19ff 6a3f 4b94 3e3f e87d e13e
00000340: 83b0 bb3e e4f0 063f a76f e93d 96e3 163e
00000350: eadd 1a3f ceda 3cbf 9db1 8f3f 8c19 3b3f
00000360: 224a 0e3f a2cf 393f 1354 c73e 6c3d ad3d
00000370: 3d39 bf3e bb58 02bf 60e3 b73f a789 c63e
00000380: d9d3 923f 3045 2b3e a569 4bbe 4452 a93e
00000390: 8194 963e dab9 b23e 7151 2c3f a1e5 f93e
000003a0: b46d c33e 8ded 303f ab07 58bf 045e c83e
000003b0: a776 3b3f 51bc 1b3f a95c b63f 0567 183f
-0.033600442 -0.8553501 -0.7358372 -0.5852716 0.12980343 0.7038036 -1.0563148 0.43730354
-0.77590567 0.27386668 0.3181993 -0.5809033 0.09808807 -0.90121984 -0.4196342 0.29165235
-0.16551308 -0.957375 0.5913613 0.1513142 -0.9668562 0.13056847 -0.8662058 -0.39377668
0.64038414 0.90274614 1.6295499 2.5627148 0.34238502 3.1228638 0.9285471 1.2977723
1.5515083 2.300332 2.8400757 1.0500208 1.1498228 1.2545254 0.8289566 0.4606103
0.4354107 0.85830903 3.0526073 0.31576186 1.0658664 0.18653782 0.9362189 0.59797215
-0.8919369 -0.34512013 0.79308945 -0.32469913 -1.0644804 -0.34876886 0.24615058 0.81031024
-0.12339319 0.63213557 -0.82538855 0.9666513 0.7529909 0.42933252 -1.1856402 0.7647973
0.7849464 0.56112677 -0.68477994 -1.0423832 0.15686116 0.13245323 -0.09443158 -0.7510306
-1.282422 -0.2167249 0.24621814 0.099766485 0.6947548 -0.07228796 -0.19517538 -0.033302598
-0.46163693 0.13354377 0.033444576 -0.25999436 -0.6704643 -0.27063355 -0.029080946 0.9534237
0.705087 0.6817422 0.6241428 0.8875866 -0.23685545 0.9987975 -0.046725597 -0.23043449
-0.026655765 -0.3530946 0.24792558 -1.4388932 0.22878504 -1.8016821 -0.11233479 -0.82216066
0.23207815 -1.8813757 -1.7401173 -3.2892308 -0.046400435 -0.7311711 -0.057330504 0.3332815
0.51442647 -0.124965414 -1.306943 0.35714462 -0.98732007 0.69912034 0.48182738 -0.9252831
0.4114502 -0.17561166 -0.49320415 -0.023922013 0.9659014 0.2234627 -0.467519 -0.032602966
-0.36990207 -0.227598 -0.3416643 0.3265025 0.21719909 -1.153546 0.19765289 0.6616682
0.6584032 -0.5528342 0.16270839 1.0424496 -0.631246 0.83349985 -0.59193885 0.36174947
-0.073981926 -0.08556596 0.33752847 0.16853628 -0.16996163 0.3636223 -0.48425 1.1233338
0.21858725 0.47646266 0.1484775 -0.1655394 1.086253 0.02531162 0.36768296 0.121508054
0.24421307 -0.16807918 -0.5042283 -0.31846613 0.21439143 0.08103714 0.11049033 0.25211865
0.3480635 0.90313673 0.80179363 0.011309372 0.28837496 -0.6105137 0.79131544 -0.44954088
0.296857 -0.9494066 -0.46049452 0.8887833 -0.4050932 0.7724365 0.88783276 0.14542261
-0.009555398 0.9181834 -1.089352 0.41734228 0.92499197 0.1297789 0.7563403 0.5830029
0.797285 1.0453635 0.6915816 0.33123094 0.17874873 -0.047340453 1.0414435 0.7680271
1.0218856 0.46146053 -0.19230431 0.6475891 0.5355232 0.917955 0.7444503 0.4404137
0.36658105 0.5271132 0.11398249 0.14735255 0.60494864 -0.7377137 1.1226078 0.73085856
0.5558187 0.7258245 0.3893133 0.08458981 0.37348357 -0.5091664 1.4366264 0.38776895
1.1470901 0.16725612 -0.19864519 0.33070576 0.29410174 0.34907418 0.6731177 0.48808005
0.38169634 0.69112474 -0.843867 0.39134228 0.73227924 0.60834223 1.4247028 0.59532195

sequential/dense_2/MatMul f4 [9, 10]
00000000: 81e0 c53f e4d9 fac0 ca6c a8c0 4830 91c0
00000010: 4457 e73f 6b3b d43e 1420 06be 4b65 bbbf
00000020: 6876 81c0 f61b 5ebf c933 07c0 8e78 12bf
00000030: af5c 553f 4efc e4be 8056 f5bc c73a 1b3e
00000040: d8b9 7e3d cf50 953f 8b5b c73e 879b 863f
00000050: f32d 923f cc67 203f f160 033f 9f1d 49be
00000060: 7ee1 b2bf 359e 373f 960d 97bd 7975 22bc
00000070: 1fdf 85bd 2802 db3e 6af4 58be 7062 dc3e
00000080: a302 2dbf a752 b23f d43b 32bf a769 a0be
00000090: b1b1 503f 1e3e 8dbd 7e93 503f c8c5 e53e
000000a0: d488 70c0 dc8d 05c0 8357 84bf 4267 66bf
000000b0: 5665 34c0 959e 32bf 4393 bebe f3a6 a5bf
000000c0: a6ea 98be bc6d a3bf 2314 4cc0 d720 1ec0
000000d0: 8424 bdbf a339 14be 9e5a 53c0 95af 90bf
000000e0: 3265 4fbf 490f c4bf faa7 0cbf efcf 22bf
000000f0: 43f9 50c0 0a69 15c0 a15b febf 1ab5 01bd
00000100: 909c 41c0 7adc 94bf 3422 79bf 5239 f4be
00000110: 33ad 42bf 8c16 9abf 06b0 68c0 6d7b 03c0
00000120: 2125 60bf 2771 05bf da61 33c0 599d 79bf
00000130: 8bf4 b3bf 8d62 3bbf 7de2 70bf b05e b6bf
00000140: 7952 5fc0 bd09 1dc0 05b2 bfbf 5110 0bbf
00000150: 8976 2ec0 cade 75bf 67e1 17bf 24dc b3bf
00000160: b642 9ebe 81d9 7fbf
1.5459138 -7.839098 -5.26328 -4.5371437 1.8073506 0.41451582 -0.13098174 -1.4640287
-4.045704 -0.86761415 -2.1125357 -0.572152 0.8334455 -0.44723743 -0.029948473 0.1515914
0.062188953 1.1665286 0.3893703 1.0516213 1.1420273 0.6265838 0.51319796 -0.19640206
-1.3975065 0.7172578 -0.07375638 -0.009915703 -0.065366976 0.42775083 -0.21186987 0.43043852
-0.6758215 1.3931473 -0.6962254 -0.31330606 0.81521136 -0.068966135 0.81475055 0.44877458
-3.7583513 -2.0867834 -1.0339206 -0.9000131 -2.818685 -0.69773227 -0.37221727 -1.2941574
-0.29866523 -1.2767863 -3.188729 -2.4707544 -1.4776769 -0.14475112 -3.3024058 -1.1303583
-0.81013787 -1.5317165 -0.5494381 -0.6359853 -3.2652137 -2.334536 -1.9871713 -0.031666853
-3.0251808 -1.1629784 -0.97317815 -0.47699982 -0.7604553 -1.2038131 -3.6357436 -2.0544083
-0.87556654 -0.5212578 -2.8028474 -0.9750572 -1.4059004 -0.7319725 -0.94095594 -1.4247646
-3.4894087 -2.4537194 -1.4976202 -0.5432177 -2.7259848 -0.96043074 -0.5932831 -1.4051557
-0.3091027 -0.9994126
