02_haptic_ur5e/src/model/keypoint_classifier/keypoint_classifier.tflite (tflite, 6940 bytes, 6 tensors)

sequential/dense/BiasAdd/ReadVariableOp f4 [20]
000000 6e 71 d5 be fb 4a a9 bf 9b 71 e0 bd a6 b4 05 bf
       -0.41688102 -1.3226007 -0.109591685 -0.5222877
000010 6a d8 96 3f 35 df 96 3d 29 ff ff be d0 31 03 bf
       1.1784794 0.07366792 -0.4999936 -0.5124788
000020 91 82 3f 3e 63 13 09 bc e0 60 cc bd 2e e2 cd be
       0.18702151 -0.008366439 -0.09979415 -0.40211624
000030 74 74 71 bf 5a 20 4b bd e2 d9 8d bf 39 4e 0e bf
       -0.9431832 -0.0495914 -1.1082118 -0.5558811
000040 ca e7 69 bf 2f e6 2c bf 5d 59 04 bf 5f 5d 19 be
       -0.9136931 -0.6753873 -0.5169886 -0.14977024

sequential/dense_2/BiasAdd/ReadVariableOp f4 [13]
000000 77 53 51 bd b4 0a 14 bf 03 7f 54 3f a2 68 40 bf
       -0.05110499 -0.5782883 0.83006305 -0.75159657
000010 d3 08 e5 be d1 ba c9 3d ef d5 e3 bd 6f 18 2b be
       -0.44733295 0.098500855 -0.11124789 -0.1670854
000020 c7 59 1d bd e3 1b 94 bd 80 70 b2 3e 8a 86 81 3d
       -0.038415696 -0.072318815 0.34851456 0.063244894
000030 c0 da 98 3e
       0.29854393

sequential/dense_1/BiasAdd/ReadVariableOp f4 [10]
000000 7b 4b 48 bf fb 3d 19 bf c9 e5 6a 3f 05 da 0d 3f
       -0.78240174 -0.598602 0.91756874 0.55410796
000010 b0 8e 91 3f ca 86 bf 3e 6f 7f ae 3f 51 d8 a8 bd
       1.137167 0.37407523 1.363264 -0.08244384
000020 83 7b fe 3e 3f d7 e2 3e
       0.49703607 0.44304845

sequential/dense/MatMul f4 [20, 42]
000000 33 de 38 be f4 3b 26 3e 8b e4 a3 3d e6 92 0a 3f
       -0.18053512 0.16233808 0.080025755 0.541304
000010 04 8d 0c 3d 75 72 e5 3e 01 a4 af be b0 8c c3 3e
       0.03431417 0.44813886 -0.34304813 0.38193274
000020 7a 70 ff be b6 92 c4 3e 9e 27 22 3e db b7 bd 3e
       -0.498905 0.38393182 0.15835425 0.37054333
000030 8e 13 88 3d 62 5f e5 3d 68 69 b1 3c 80 35 65 bc
       0.06644355 0.111998335 0.021656707 -0.013989806
000040 e7 57 25 3d 34 97 31 bd b4 81 03 3e 80 12 50 3e
       0.040367033 -0.04335709 0.12842447 0.20319557
000050 93 32 31 3d d5 68 88 3e 8c f6 c8 3d a4 31 5e be
       0.043261122 0.2664248 0.0981265 -0.21698624
000060 70 0b 6e 3e f5 62 e1 be 86 0d 02 3e 0e b6 13 3e
       0.2324655 -0.4402081 0.12700471 0.14424917
000070 df 92 a1 bd 4d 9c e6 3d 91 52 d2 3d 70 f1 06 bf
       -0.078893416 0.11260281 0.102696545 -0.52712154
000080 ad 27 bd 3e 2c 99 3b bf 58 ec 1a bd ef a2 ec 3b
       0.36944333 -0.73280597 -0.03782305 0.0072215716
000090 f9 06 03 be 93 9f a6 bc e4 b2 a2 3c ed 34 26 bf
       -0.12795629 -0.020339763 0.019860692 -0.6492451
0000a0 64 dd 9a 3e 06 54 67 bf 00 9f c1 3d 10 21 41 3d
       0.30247033 -0.90362585 0.09454155 0.04715067
0000b0 e5 dd 90 3e 6c 70 80 be e8 1e 8c 3d 98 ed dd be
       0.28294292 -0.2508577 0.068418324 -0.43345332
0000c0 d6 c2 45 3e 2e e8 56 bf 0d 65 96 3c 71 c3 7b bf
       0.19312605 -0.8394803 0.018358732 -0.98345095
0000d0 87 0e 4f be 88 70 23 3f c0 b2 10 bd b7 6d d6 3d
       -0.20220385 0.63843584 -0.03532672 0.10470145
0000e0 46 e8 14 3d 23 da d4 bd 59 bc 13 3d ff da 87 be
       0.036354326 -0.10393169 0.036068294 -0.26534268
0000f0 ac 7f 29 be e1 99 02 3f 7f 04 39 bd cf a1 cf 3e
       -0.16552609 0.5101605 -0.045170303 0.40553138
000100 83 6c 09 be 7b 8d d5 3e 36 41 0a be 0b 93 38 3f
       -0.134203 0.41709504 -0.13501438 0.7209937
000110 6a 17 b8 bd fb 30 fd 3e 86 4b 83 bd ae 5b 93 3e
       -0.08988841 0.49451432 -0.06410889 0.28780884
000120 72 13 4d be f9 17 01 3f 2d d3 6c be fe d2 38 3f
       -0.20026949 0.50427204 -0.23127432 0.7219695
000130 60 d3 5a bd dc 72 e3 bc 50 fc 61 be 7f ad 43 3e
       -0.05342424 -0.02776473 -0.22068906 0.19109152
000140 2a 56 e6 be c9 cc b2 3e 0a f1 12 bf f8 db f5 3e
       -0.44987613 0.34921864 -0.57399046 0.48019385
000150 42 2d 8e be e2 1a 2b 3e 26 53 5e be ab 86 3f 3f
       -0.27768904 0.16709474 -0.21711406 0.7481486
000160 a2 fe 2c bd b9 36 2b 3f 08 a4 ee 3d 66 05 15 3f
       -0.042235024 0.66880375 0.1165238 0.5821136
000170 10 76 68 3e b6 b3 e9 3e ee c2 50 be 4a 35 cc be
       0.22701287 0.4564492 -0.2038686 -0.39884406
000180 12 3e e1 bd 9d 1b b2 be 5f 7f 4c 3d ec c3 2a bf
       -0.10998167 -0.34786692 0.049926158 -0.66705203
000190 db 8e 75 3d ea 09 94 be bd 7b 3b be a1 bd c4 be
       0.05995069 -0.28913814 -0.18308921 -0.38425925
0001a0 72 37 69 bd 72 8b a3 3d e6 f9 65 3d 1e 75 cf 3e
       -0.056937642 0.079855815 0.056146525 0.4051904
0001b0 8b 45 ac 3d 12 6e ea 3e 72 6b a6 bb 23 77 9c be
       0.08411702 0.45787102 -0.0050787264 -0.30559644
0001c0 e2 f2 3f bd 7a 04 e3 3d 78 45 a2 3d 5c de a5 3e
       -0.04686249 0.11084838 0.07923406 0.3239621
0001d0 09 30 e5 3d 7b 1d dc 3e 1b cc 5a 3e 84 33 81 be
       0.111908026 0.42991242 0.21366923 -0.25234616
0001e0 aa 00 cb 3c 61 f4 91 3c 67 e1 cd 3d 29 31 35 3e
       0.02478059 0.017816724 0.10052758 0.17694534
0001f0 d1 35 28 3e 2e 7e 87 3e 84 31 eb bd e8 29 04 bd
       0.1642678 0.26463455 -0.11484054 -0.032266527
000200 cd 1c 89 3d fd e1 a5 3e 85 56 8b be c6 4a 4b bc
       0.066949464 0.32398978 -0.27214447 -0.012407964
000210 cf cc 05 bf 7c fc 7f bd 94 68 7a bf dc 41 16 3d
       -0.5226564 -0.062496647 -0.97815824 0.036683902
000220 81 7b 9c bc f5 a8 bf 3e 5a 78 6a 3d 3a 62 0b 3e
       -0.01910186 0.3743359 0.057243682 0.13611689
000230 ae b3 dd 3d 56 61 db bd 4c 15 e2 3d c6 ce 9d be
       0.10825287 -0.10711925 0.11039218 -0.30821818
000240 b8 d4 ab bd 95 ef ec 3e 49 9b 5f 3d 5e 7e b8 3b
       -0.08390182 0.46276537 0.05459145 0.0056302985
000250 70 87 8c 3e 8b 4c 19 be e1 14 1c 3f f3 37 d6 bd
       0.2744708 -0.14970605 0.6096936 -0.1045989
000260 42 8b 11 be 39 a2 ec 3e 1d 64 1a bc b0 78 a3 bc
       -0.14213279 0.46217516 -0.009423283 -0.01995501
000270 3e 49 d5 3e 88 36 18 be 69 af 5d 3f 1f 28 5f be
       0.41657442 -0.14864552 0.8659578 -0.21792649
000280 11 c4 1f be 03 68 f2 3e 52 a0 ba bc b5 8b c3 3d
       -0.15602137 0.4734498 -0.022781525 0.095481314
000290 de 3e 79 3e 08 cf 41 bd 82 e9 16 3f b7 71 08 be
       0.24340388 -0.04731658 0.58950055 -0.13324629
0002a0 c8 31 80 3e ba 89 57 be 23 6d b2 be 3d 67 c6 3e
       0.2503798 -0.21048632 -0.3484889 0.3875064
0002b0 a4 e6 58 bd e4 68 8e 3e 8e 02 08 3e b4 ca 12 3e
       -0.05295433 0.278144 0.13282225 0.14335138
0002c0 d5 b5 7f 3e 1e 0a 93 bc dc f2 15 bf 40 b9 71 3e
       0.24971707 -0.01794916 -0.585737 0.23605824
0002d0 e9 86 0b be f4 53 95 3d 98 d1 be bd d7 d3 9b bc
       -0.13625683 0.072914034 -0.093173206 -0.019021912
0002e0 79 00 8a bd 34 4a 45 be 2f f4 9e be d3 94 2c be
       -0.067383714 -0.19266587 -0.31045672 -0.16853647
0002f0 25 31 ff bc 58 0c 9e 3d 37 fc 96 3d c9 8b 07 be
       -0.031151364 0.07717198 0.07372325 -0.13236918
000300 a3 f3 a7 3d 2a e3 ab be 64 61 0e be 5d 0b 23 bf
       0.08200767 -0.3357175 -0.13904339 -0.63689214
000310 0a fd 5a 3d 11 41 86 be 13 8d 05 3e 80 c5 a2 be
       0.053463973 -0.26221517 0.13042097 -0.31791306
000320 40 1c a9 3d 40 6e bd be 53 72 24 3d ec 80 35 bf
       0.082573414 -0.36998177 0.04014809 -0.70899844
000330 f7 e1 47 3e 22 17 ea be 5a 6f 52 3e 1a 7f f9 be
       0.19519792 -0.45720774 0.2055029 -0.48729783
000340 4c 8f 4c 3e 9c f2 fd be 5a bb 80 be 8c 5b 9b be
       0.19976538 -0.4959916 -0.25142938 -0.30343282
000350 11 9a fd 3f a2 92 57 be 4f ae a5 3f 95 fc 3d be
       1.9812642 -0.2105203 1.294382 -0.18553384
000360 9a 5e 91 3f 3c fc 97 be 02 4a 9b 3f a4 d2 ca be
       1.1356995 -0.29684627 1.213196 -0.3961383
000370 38 c7 8d 3d ed 84 0e 3f 8f c3 5a 3e b1 5d 0d be
       0.069227636 0.5567158 0.21363662 -0.13805272
000380 11 6c 18 3e cf cf 17 be 1d df 9b 3d ec 6a 10 be
       0.14884974 -0.14825366 0.07610915 -0.14103287
000390 19 b7 49 bd 40 53 0d 3e b0 e7 b1 3d 71 0d f8 bd
       -0.04924688 0.13801289 0.08686769 -0.12111939
0003a0 36 35 a0 3d 03 15 5d be 49 57 0e 3e fd 51 6a be
       0.07822649 -0.21590047 0.13900484 -0.22882839
0003b0 ec 31 d3 bd ab 0e 0b 3e b3 5d c9 3c 82 b9 51 bd
       -0.10312256 0.13579814 0.024580812 -0.051202305
0003c0 05 51 17 bd 77 a0 17 be a4 1f 0e bd 3c 6a 1e be
       -0.0369425 -0.14807306 -0.034698144 -0.15470213
0003d0 49 b4 48 bd 81 ec 0c 3e 1c a8 05 be cb 37 36 3e
       -0.04900006 0.13762094 -0.1305241 0.17794721
0003e0 1e f7 2b be 32 a5 0a 3d b0 7e 5c be cb 83 a0 bd
       -0.16793486 0.03384895 -0.21532702 -0.078376375
0003f0 da 90 97 be 7c f1 63 3e 75 e0 e5 3d 06 0a 0a 3f
       -0.296027 0.22260088 0.112244524 0.53921545

sequential/dense_1/MatMul f4 [10, 20]
000000 e5 8d 72 3f 92 28 f2 be e4 85 09 bf 81 16 47 3f
       0.94747764 -0.47296578 -0.53719926 0.77768713
000010 e7 30 b2 3e 1e 1a f1 3d 05 b8 84 3f 21 0b 03 bf
       0.34802935 0.117725596 1.0368658 -0.51188856
000020 9e e3 24 3f 3c 69 0c 3c 89 25 25 3f 2c 91 1c 3f
       0.64409816 0.008570012 0.645104 0.61159015
000030 90 f4 b7 be cb a6 5c 3d 51 ab 9c 3e e3 82 b7 bf
       -0.35928774 0.053870004 0.30599454 -1.4336818
000040 9c 9d 40 bf 3b 52 e6 bd 40 19 81 3f 47 a6 58 3e
       -0.7524049 -0.11246153 1.0085831 0.2115718
000050 17 41 b0 3e cc 5a 45 3e 05 64 d1 3e 21 39 50 3f
       0.3442466 0.19272918 0.4089662 0.8133717
000060 29 5a b5 3e f0 a3 69 3f 83 d5 1a 3f f5 80 98 3c
       0.3542035 0.91265774 0.60482043 0.018616179
000070 63 af 05 3d 1a 9c ca 3d ee 9a 2b 3e e0 b4 4b 3e
       0.032637965 0.09893055 0.1675832 0.19893217
000080 96 0f 86 3e c3 61 62 3f 5b 55 4c 3f b6 3d 36 3e
       0.26183766 0.8843042 0.7981774 0.17796978
000090 39 db 37 3f 98 4e 73 3e dc 2c 6b 3d b3 bf 67 3e
       0.7181888 0.2376045 0.057415828 0.22631721
0000a0 ad 18 a9 3e 1b b1 7a bd b3 58 1d 3f 96 d7 95 3f
       0.3302664 -0.061204057 0.6146347 1.1706417
0000b0 47 41 4c 3e f4 40 be bd e1 6b da 3e 1b 7b 9d bc
       0.19946776 -0.092897326 0.4266043 -0.01922374
0000c0 d8 9b 81 bf 90 87 b3 be 45 3d 7f 3e 14 29 d3 3e
       -1.0125685 -0.35064363 0.24925716 0.41242278
0000d0 e5 96 6f 3e 3c 85 0c 3d 85 2a 6c 3f e8 94 94 3f
       0.23397405 0.03430675 0.9225238 1.1607943
0000e0 6d 91 9d 3f 18 f5 08 be cf 35 00 3e 2a 67 8c 3d
       1.2310005 -0.13374746 0.12520526 0.068556145
0000f0 b7 0b a6 be ce c0 a1 bd 30 ab 03 3f f0 78 8b 3e
       -0.32430813 -0.07898103 0.51433086 0.27240705
000100 b6 e8 27 3f a3 3f 90 3d c0 f8 1f bf 93 92 3e 3e
       0.65589464 0.07043388 -0.6248894 0.18610601
000110 b6 61 9a bd a2 41 4f 3e e9 c9 c6 3e c7 32 a8 3e
       -0.07538168 0.2023988 0.3882592 0.3285124
000120 a0 23 5f 3e 6f 3a 63 3d 80 51 a2 3e 5c 1a ee bd
       0.21790934 0.05547565 0.31702805 -0.116261214
000130 01 06 85 3d fc bd 25 bc ad 65 3d bf 7f 67 8e 3e
       0.06495286 -0.010116097 -0.7398327 0.27813336
000140 20 f7 73 bf 16 62 e3 3e 9c 28 4c bf e9 5c b4 bf
       -0.9529896 0.4441077 -0.79749465 -1.4090854
000150 ec 31 a4 be a9 ab e1 bf c0 c8 63 3e e7 a5 cd 3e
       -0.32069337 -1.7630512 0.22244549 0.40165636
000160 a1 c6 d3 bd 1d 99 02 3f 61 b4 b1 3e fb a4 13 bf
       -0.1034062 0.5101488 0.3470793 -0.57673615
000170 6b 21 8b bf e4 e5 90 bf 0a 5e 18 bf 9b 3a 68 3e
       -1.0869573 -1.1320157 -0.5951849 0.22678606
000180 95 2c aa bf 36 05 0a 3f d0 10 ca 3e 94 83 ff bf
       -1.3294855 0.539142 0.39465952 -1.996203
000190 85 29 59 3f 8c b7 e5 3d f3 c7 44 bc d4 db 3c 3e
       0.8482898 0.112166494 -0.012010562 0.18443233
0001a0 22 74 8c 3f 6e 6a 2c 3f cd 25 84 3f 67 67 d4 3d
       1.0972941 0.673499 1.0324036 0.10371285
0001b0 8e 85 95 3f a7 f8 99 3d 8c fb 63 3f bf 1a 6b 3f
       1.1681383 0.0751813 0.89055705 0.91837686
0001c0 60 0d 65 bf 76 88 fc 3e 76 00 08 3e 70 3d d7 3a
       -0.89473534 0.4932286 0.13281426 0.0016421508
0001d0 a2 61 43 3e 1a 4d be 3d 59 95 4e 3f cd 8c 27 bf
       0.19080213 0.0929205 0.80696636 -0.6544922
0001e0 f9 7d 35 be 36 74 c2 bd 3f af 2f 3f c8 c7 11 3f
       -0.17723836 -0.09494822 0.6862678 0.56945467
0001f0 eb 01 57 3e 79 20 3b 3f cd 43 10 bf e5 ab 97 3d
       0.20996825 0.73096424 -0.56353456 0.07405833
000200 f8 85 3e 3e 99 99 71 3e 8f e0 c2 3d 3e 13 6f 3e
       0.18605793 0.23593749 0.095154874 0.23347184
000210 45 ec 05 3e 1c 0d 29 3f aa 51 7a 3e 4c b6 01 bf
       0.13078411 0.6603563 0.24445215 -0.5066879
000220 7c df f0 3e 0f f7 42 be 65 48 4a be a5 07 d8 3e
       0.47045505 -0.19039558 -0.19754179 0.42193332
000230 92 30 8e be d3 84 8c 3f 37 4c 4e 3c 33 ab 76 3c
       -0.2777143 1.0978035 0.012591413 0.0150554655
000240 22 54 88 bd a9 28 ae 3d 3f 69 ea 3e e3 6b 3b 3f
       -0.06656672 0.08503849 0.4578342 0.732115
000250 03 6e f4 bc 33 a8 59 3f 10 04 01 bd cc 3c 8f bd
       -0.029837614 0.85022277 -0.031498015 -0.06994018
000260 3f 13 39 3f 83 37 5b bd 90 9a 9c bb 29 c9 16 3f
       0.7229499 -0.053519737 -0.0047791675 0.58900696
000270 75 b5 ea 3b a0 0c a1 3f 4f 1c c2 3e 63 5c 4e 3e
       0.0071627446 1.2581978 0.37912223 0.2015243
000280 3f 0f 8a be 37 82 0a bf 60 1e 42 3e ef e9 1e be
       -0.26964757 -0.5410494 0.189569 -0.15518926
000290 e4 f1 e5 3e 03 99 61 3e 78 df c9 be 8b 07 6d 3e
       0.4491111 0.22031026 -0.39428306 0.23147409
0002a0 08 9c 23 3e 9b 17 c6 3d 0f 40 dc 3e ec 12 27 3f
       0.1597749 0.09672471 0.43017623 0.6526325
0002b0 be 48 60 3f a7 1a ca 3e 3a 1c 32 bd 73 1f 57 be
       0.87610996 0.3947346 -0.04348395 -0.2100809
0002c0 1e f7 90 3f a9 60 60 be 3d fa 6e bf d1 31 dc 3e
       1.1325414 -0.21911873 -0.93350583 0.43006757
0002d0 48 51 2f 3f 0f 8f 00 3f 92 57 90 bc 4a 86 ae 3e
       0.684834 0.5021829 -0.017619882 0.3408683
0002e0 06 59 a0 bc 55 e8 cc 3e 49 87 c3 3e 71 83 e6 3e
       -0.0195737 0.40021005 0.38189152 0.45022157
0002f0 e0 66 e3 3e b4 9e c6 3e 0d d1 d7 3e db 8b d0 3d
       0.44414425 0.38792956 0.4215168 0.10182925
000300 b6 28 a3 3f 68 f8 b0 3a 74 4e 05 bf 86 71 04 3e
       1.2746799 0.0013501765 -0.52072835 0.12933931
000310 dd 0e f3 3d c2 0a f6 3e df 2e 8f bd 83 19 03 3f
       0.11868069 0.48055083 -0.06991362 0.512108

sequential/dense_2/MatMul f4 [13, 10]
000000 8a 09 35 3f 13 34 56 3f 66 14 df be c9 1b f6 3d
       0.7071768 0.8367321 -0.4357025 0.12017018
000010 bd 13 47 bf 54 24 63 3e 00 f8 a2 3e 41 2e 0b 3f
       -0.77764493 0.22181827 0.31829834 0.5436745
000020 ac e3 b7 be 91 ba 36 be c7 c1 80 be b8 7b 13 3f
       -0.35915887 -0.17844607 -0.2514784 0.57610655
000030 f7 25 06 bf 05 5d a8 bc 18 03 00 bf 41 13 ae 3e
       -0.5240168 -0.020552168 -0.5000472 0.33999065
000040 97 4a 55 3d ff 47 6e be 5f fc 23 3f b6 be 13 3f
       0.052073088 -0.23269652 0.6405696 0.57712877
000050 e8 60 09 bf 43 95 48 be 7d 18 a9 bf d3 d3 f8 3e
       -0.5366349 -0.19588189 -1.3210598 0.4859911
000060 b8 f1 9e be 07 21 32 3e 84 f7 82 3f 86 d1 33 bf
       -0.31043792 0.17395411 1.0231786 -0.7024158
000070 ca 58 27 3f 86 67 79 3d d5 bb 3f 3f d9 c1 8b be
       0.65369856 0.060889743 0.74895984 -0.27296332
000080 3d 8e ba bd 90 75 cf 3d b5 da 07 bf 1c af 0e 3f
       -0.09109161 0.10129845 -0.53068095 0.55735946
000090 38 81 31 bf ff 26 52 bf 9e 68 ab 3d 5a 7a d3 be
       -0.693378 -0.82090753 0.083695635 -0.41304284
0000a0 13 27 10 3e 2f dd a0 3e f9 81 bd 3e b1 98 e2 3e
       0.14077406 0.3141875 0.37013224 0.4425712
0000b0 fc cb 13 bf 6d f6 5a bf 7b ee 6a bd 88 41 72 bf
       -0.5773313 -0.85532266 -0.05735634 -0.9463124
0000c0 58 ec a6 bf 7a 9c 63 3b 53 ef 13 3e ce 57 8f 3e
       -1.3040876 0.0034730718 0.14446764 0.27996677
0000d0 14 5a dc 3e d3 62 ad 3e 9a 04 0d bf 88 45 8c bf
       0.43037474 0.3386446 -0.55085146 -1.0958719
0000e0 f2 0a 33 3d cf 3b 9c bf dd 12 88 bf 28 4d f2 bc
       0.04371161 -1.2205752 -1.0630757 -0.029577807
0000f0 ba df 83 3d b8 10 f2 bd bf 57 21 3f 65 1a 96 be
       0.06439157 -0.11819595 0.63024515 -0.29317012
000100 a4 74 5e bf 2d 71 85 bf 73 97 03 3f 22 0e 7f bf
       -0.8689673 -1.0425164 0.5140297 -0.9963094
000110 1e 68 e6 be 20 ac 2f bf 0f e0 94 be 27 71 a5 be
       -0.4500131 -0.68622017 -0.29077193 -0.3231289
000120 eb dd 0d 3f ad 78 22 bc 30 7b 40 bf 4c 72 e2 bf
       0.55416745 -0.009916467 -0.7518797 -1.7691131
000130 65 25 bc 3e f7 f5 16 bf bd 6d d1 3d 1c 69 91 bf
       0.3674728 -0.5896906 0.10226009 -1.1360202
000140 01 2d 54 bf 65 41 ff be 3d 92 e2 3e d9 0f bb bd
       -0.8288117 -0.4985458 0.44252196 -0.09133882
000150 29 a5 fe be cb 03 ef bf e4 85 b9 3e 69 33 9d be
       -0.49735382 -1.8673033 0.36234963 -0.30703285
000160 cf 67 0f 3f ac 56 a6 bf 01 f6 8b bf 0a dc c2 3d
       0.56017774 -1.29952 -1.093445 0.09514625
000170 56 71 0e bf 29 cf 57 bf 6b b9 0c 3f e4 29 0a 3f
       -0.55641687 -0.84300476 0.54970425 0.5397017
000180 04 a8 a9 bd 24 6b 04 bc 8b cc bb be 1d 2a 85 3e
       -0.082839996 -0.008082185 -0.3667949 0.26008692
000190 74 38 6d bf ba 9f ab bf cc 11 26 bf 8a f0 13 bf
       -0.92664266 -1.340812 -0.64870906 -0.5778891
0001a0 66 10 53 3f 36 21 17 be a9 a2 fc be 17 f1 6c 3e
       0.824469 -0.14758763 -0.4934285 0.23138843
0001b0 fb e4 14 bf 1c 54 06 be 0f 80 3b 3f 33 1a 01 be
       -0.58161896 -0.13118023 0.73242277 -0.1260765
0001c0 33 f0 cd be 37 bf dd be 17 fd f7 3e d4 43 4f bf
       -0.4022232 -0.43309948 0.4843528 -0.8096287
0001d0 3d 46 95 be ee cc fc 3d 05 26 db be 1c 85 a2 3e
       -0.2915515 0.12343775 -0.42802444 0.3174218
0001e0 17 6a 25 bf 02 3f 1a be e5 70 e9 be 44 a4 a2 be
       -0.64615005 -0.15063098 -0.45593944 -0.3176595
0001f0 12 9f 8d be 2b 1e d7 bf 78 24 85 bd 24 45 e6 3e
       -0.27660424 -1.6806082 -0.065010965 0.44974625
000200 38 67 b9 be ab 0a 20 3f
       -0.36211562 0.6251628
